
======
General Training info:
device: cuda
device name: Tesla T4
model save dir: ../model/pianoroll_classifier_cnn_google_cloud
log dir: ../log/pianoroll_classifier_cnn
total num of epochs: 200
batch size: 32
num of workers: 4
feature conv size: 4
==========

======
Model info:
model structure:
PianorollGenreClassifierCNN(
  (feature): Sequential(
    (0): Conv2d(1, 64, kernel_size=(4, 4), stride=(1, 1), padding=(1, 1))
    (1): ReLU(inplace=True)
    (2): AvgPool2d(kernel_size=2, stride=2, padding=0)
    (3): Conv2d(64, 128, kernel_size=(4, 4), stride=(1, 1), padding=(1, 1))
    (4): BatchNorm2d(128, eps=1e-05, momentum=0.1, affine=True, track_running_stats=True)
    (5): ReLU(inplace=True)
    (6): AvgPool2d(kernel_size=2, stride=2, padding=0)
    (7): Conv2d(128, 128, kernel_size=(4, 4), stride=(1, 1), padding=(1, 1))
    (8): BatchNorm2d(128, eps=1e-05, momentum=0.1, affine=True, track_running_stats=True)
    (9): ReLU(inplace=True)
    (10): Conv2d(128, 128, kernel_size=(4, 4), stride=(1, 1), padding=(1, 1))
    (11): BatchNorm2d(128, eps=1e-05, momentum=0.1, affine=True, track_running_stats=True)
    (12): ReLU(inplace=True)
    (13): AvgPool2d(kernel_size=2, stride=2, padding=0)
  )
  (avgpool): AdaptiveAvgPool2d(output_size=(5, 5))
  (classifier): Sequential(
    (0): Linear(in_features=3200, out_features=512, bias=True)
    (1): ReLU(inplace=True)
    (2): Dropout(p=0.3, inplace=False)
    (3): Linear(in_features=512, out_features=256, bias=True)
    (4): ReLU(inplace=True)
    (5): Dropout(p=0.3, inplace=False)
    (6): Linear(in_features=256, out_features=128, bias=True)
    (7): ReLU(inplace=True)
    (8): Dropout(p=0.3, inplace=False)
    (9): Linear(in_features=128, out_features=64, bias=True)
    (10): ReLU(inplace=True)
    (11): Dropout(p=0.3, inplace=False)
    (12): Linear(in_features=64, out_features=32, bias=True)
    (13): ReLU(inplace=True)
    (14): Dropout(p=0.3, inplace=False)
    (15): Linear(in_features=32, out_features=8, bias=True)
  )
)
model summary:
None==========
training started on 2022-03-10 16:03:34.410044
==========
Current Epoch 1/200
Entry on Thu Mar 10 16:03:34 2022
Currently used time: 0.0h 0.0m 0.00s
Epoch Loss: 0.0285, Epoch Accs: 0.7823
Epoch Time: 7:12
==========
Current Epoch 2/200
Entry on Thu Mar 10 16:10:46 2022
Currently used time: 0.0h 7.0m 11.84s
Epoch Loss: 0.0260, Epoch Accs: 0.7943
…
