
======
General Training info:
device: cuda
device name: NVIDIA GeForce GTX 1070
model save dir: ../model/pianoroll_classifier_cnn
log dir: ../log/pianoroll_classifier_cnn
total num of epochs: 50
batch size: 16
num of workers: 2
feature conv size: 3
==========

======
Model info:
model structure:
PianorollGenreClassifierCNN(
  (feature): Sequential(
    (0): Conv2d(1, 64, kernel_size=(3, 3), stride=(1, 1), padding=(1, 1))
    (1): ReLU(inplace=True)
    (2): AvgPool2d(kernel_size=2, stride=2, padding=0)
    (3): Conv2d(64, 128, kernel_size=(3, 3), stride=(1, 1), padding=(1, 1))
    (4): BatchNorm2d(128, eps=1e-05, momentum=0.1, affine=True, track_running_stats=True)
    (5): ReLU(inplace=True)
    (6): AvgPool2d(kernel_size=2, stride=2, padding=0)
    (7): Conv2d(128, 128, kernel_size=(3, 3), stride=(1, 1), padding=(1, 1))
    (8): BatchNorm2d(128, eps=1e-05, momentum=0.1, affine=True, track_running_stats=True)
    (9): ReLU(inplace=True)
    (10): Conv2d(128, 128, kernel_size=(3, 3), stride=(1, 1), padding=(1, 1))
    (11): BatchNorm2d(128, eps=1e-05, momentum=0.1, affine=True, track_running_stats=True)
    (12): ReLU(inplace=True)
    (13): AvgPool2d(kernel_size=2, stride=2, padding=0)
  )
  (avgpool): AdaptiveAvgPool2d(output_size=(5, 5))
  (classifier): Sequential(
    (0): Linear(in_features=3200, out_features=512, bias=True)
    (1): ReLU(inplace=True)
    (2): Dropout(p=0.3, inplace=False)
    (3): Linear(in_features=512, out_features=256, bias=True)
    (4): ReLU(inplace=True)
    (5): Dropout(p=0.3, inplace=False)
    (6): Linear(in_features=256, out_features=128, bias=True)
    (7): ReLU(inplace=True)
    (8): Dropout(p=0.3, inplace=False)
    (9): Linear(in_features=128, out_features=64, bias=True)
    (10): ReLU(inplace=True)
    (11): Dropout(p=0.3, inplace=False)
    (12): Linear(in_features=64, out_features=32, bias=True)
    (13): ReLU(inplace=True)
    (14): Dropout(p=0.3, inplace=False)
    (15): Linear(in_features=32, out_features=8, bias=True)
  )
  (softmax): Softmax(dim=1)
)
model summary:
None==========
training started on 2022-03-10 16:13:52.868149
==========
Current Epoch 1/50
Entry on Thu Mar 10 16:13:52 2022
Currently used time: 0.0h 0.0m 0.00s
Epoch Loss: 0.0961, Epoch Accs: 0.7961
Epoch Time: 6:13
==========
Current Epoch 2/50
Entry on Thu Mar 10 16:20:05 2022
Currently used time: 0.0h 6.0m 12.52s
…
